core/data/models/audio/wake_word/Hey_Leon.onnx (onnx, 205430 bytes, 9 tensors)

layer1.weight f4 [32, 1536]
0	0xba3a0c52	-0.0007097173
1	0xbb57b60b	-0.0032914903
2	0x3afd1851	0.0019309615
3	0xbcb6b6fb	-0.022304049
4	0x3d2b50a5	0.041824955
5	0xbad1b460	-0.001599919
6	0x3cbf32c7	0.023339642
7	0x3b76b09c	0.0037641888
8	0x3ccaa991	0.024739059
9	0x3b8011f5	0.0039083906
10	0xbcb92f6f	-0.022605626
11	0xbca559d9	-0.020184444
12	0x3c0872ed	0.008328182
13	0xbc4c78ea	-0.01248
14	0xbc9c73f9	-0.019098269
15	0xbcc407a1	-0.023929419
16	0xbc7b2928	-0.015329637
17	0x3b068e6b	0.0020531665
18	0x3c7f975e	0.015600054
19	0xbc6da5e7	-0.014504886
20	0x3cf118a9	0.029430704
21	0xbbfb1f66	-0.007663655
22	0x3c502a5e	0.012705414
23	0xbc2d4a71	-0.01057683
24	0xbaea604e	-0.0017881484
25	0x3c5ac56f	0.013352736
26	0xbbe071e7	-0.0068495157
27	0x3c1d1b8a	0.009589085
28	0x3cb2da21	0.021832528
29	0xbccf0884	-0.025272615
30	0x3a20aa76	0.0006128916
31	0x3c7b33fa	0.015332216
32	0x3cb86c3a	0.022512544
33	0xbc751c89	-0.014960417
34	0xbc3c3938	-0.011488251
35	0xbc212943	-0.009836498
36	0xbc3ce30f	-0.011528744
37	0xbb81f3ae	-0.0039658165
38	0xbc9dabe4	-0.019247003
39	0xbc542eb2	-0.012950586
40	0x3c44165d	0.011968222
41	0x3d4cd63c	0.050008997
42	0x3b21cdcd	0.0024689317
43	0xbc5c6d29	-0.01345376
44	0xbbee6a5b	-0.007275862
45	0x3a7d0a08	0.0009652679
46	0xbc335eb5	-0.010947873
47	0x3b7a013c	0.0038147708
48	0x3c3306b2	0.010926889
49	0xbcecb861	-0.028896512
50	0xbcbb1989	-0.022839325
51	0xbc63672d	-0.0138795795
52	0x3c73c41d	0.0148783
53	0xbc9bade2	-0.019003812
54	0xbc241bff	-0.01001644
55	0xbbaafce1	-0.005218134
56	0xbcab6f56	-0.020927113
57	0x3ca8273f	0.020526526
58	0xbcd60f74	-0.026130415
59	0xbc5b1f09	-0.013374099
60	0xbc22545a	-0.009907806
61	0xbc33efce	-0.010982467
62	0xbbe3bc67	-0.0069499495
63	0x3bc34481	0.005959094
64	0xbc5f2684	-0.013620023
65	0xbbc6adc2	-0.006063194
66	0x3c499567	0.012303687
67	0xbc0f8b78	-0.008761279
68	0xbcbf01c9	-0.02331628
69	0xbca6cb78	-0.020360693
70	0xbcb78bb3	-0.022405481
71	0xbbec78c3	-0.0072165444
72	0x3d07ccd1	0.033154313
73	0xbc9d1697	-0.01917581
74	0x3c9f05d5	0.01941196
75	0xbb0a1dd0	-0.0021074899
76	0xbd3c61f2	-0.045991845
77	0xbccf2b35	-0.025289157
78	0xbbe13fab	-0.006874045
79	0x3c7d16d1	0.015447334
80	0x3d0677d4	0.03282912
81	0x3bd0513b	0.0063573397
82	0xbbda9896	-0.0066710217
83	0x3c239c1a	0.009985948
84	0x3b772da1	0.0037716406
85	0xbbe036d9	-0.006842476
86	0x3c43a6b2	0.011941599
87	0xbd016250	-0.0315879
88	0x3cf9ec3f	0.030508159
89	0x3b9b32df	0.004736289
90	0x3c354300	0.011063337
91	0x3cd31edd	0.025771553
92	0xbc3d4072	-0.0115510095
93	0xbc04bd89	-0.008101829
94	0x3c638744	0.01388723
95	0x3c90b444	0.017664082
96	0xbc7402ac	-0.014893215
97	0x399d30c0	0.00029981695
98	0xbc607a3f	-0.013701021
99	0x3c7b88c3	0.015352431
100	0x3a7d3080	0.0009658411
101	0x3c94be6a	0.018157203
102	0x3cd689d3	0.026188767
103	0x3ce7398a	0.028225679
104	0x3cb82ff7	0.022483809
105	0x3c40efaa	0.01177589
106	0x3b0ce219	0.002149707
107	0xbc985448	-0.018594876
108	0xba2eab06	-0.0006663058
109	0xbba861ae	-0.0051385975
110	0x3c17a16b	0.009254794
111	0x3b92b984	0.0044776816
112	0xbc077c63	-0.008269402
113	0xbd0df465	-0.0346569
114	0xbc47f94e	-0.012205435
115	0xba3ce1de	-0.00072052877
116	0x3ccd4391	0.025056632
117	0xbc43ad25	-0.011943136
118	0x3b8b16f2	0.0042446787
119	0xbad5d815	-0.0016315008
120	0xbbf69c5c	-0.0075259637
121	0x3b157a58	0.0022808518
122	0xbcd511be	-0.026009437
123	0x3cfe428b	0.03103759
124	0x3cde002e	0.027099695
125	0x3bea1f0f	0.0071448158
126	0xbc801739	-0.015636073
127	0x3c89e61e	0.016833361
128	0xb92b4820	-0.000163347
129	0xbcee31f6	-0.029076558
130	0xbcb313ff	-0.02186012
131	0x3c5d3aa6	0.013502752
132	0xbc2dd17a	-0.010609025
133	0x3ba49321	0.005022422
134	0xbb024a63	-0.0019880764
135	0xbc6c5764	-0.014425132
136	0x3c30cd67	0.010791159
137	0x3c4163a0	0.011803538
138	0xbbb80178	-0.0056154095
139	0xbcb23bd6	-0.021757048
140	0x3b115764	0.0022177333
141	0xbc5cc45a	-0.013474548
142	0xbca85035	-0.020546058
143	0xbbbdf95a	-0.0057975473
144	0x3c7f0c5a	0.01556691
145	0x3c92495d	0.017857248
146	0x3c519003	0.012790683
147	0xba8b03ee	-0.001060603
148	0xbc48a023	-0.012245211
149	0xbc096fdf	-0.008388489
150	0x3c1408b2	0.009035276
151	0x3c34993b	0.011022861
152	0xbb2b80c1	-0.0026169273
153	0x3b6a0daa	0.003571371
154	0x3c684502	0.014176609
155	0xbd1e6d73	-0.038678598
156	0x3bc9c92f	0.006158016
157	0x3c50898e	0.012728108
158	0xbaff10f7	-0.0019460012
159	0xbcca7024	-0.024711676
160	0x3ca2d3f6	0.019876461
161	0xbbd79a7c	-0.0065796953
162	0xbbd07ae6	-0.006362307
163	0x3ae22713	0.0017254077
164	0xbb8d349f	-0.0043092514
165	0xbb143a02	-0.0022617583
166	0x3d085a0f	0.03328901
167	0xbca1b4a5	-0.019739458
168	0xba8d4929	-0.001077925
169	0x3a9fc632	0.0012189804
170	0x3b51c8d9	0.0032010584
171	0x3bc6acad	0.006063065
172	0xbb9a38bf	-0.0047064717
173	0xbc8372ff	-0.016046045
174	0xbc075d19	-0.008261942
175	0x3b518a4d	0.0031973303
176	0x3cd9d7b8	0.02659212
177	0x3c89df89	0.016830223
178	0xbc4f1980	-0.012640357
179	0xbc078868	-0.008272268
180	0x3cb162a5	0.021653483
181	0x3baf3895	0.0053473213
182	0x3c3e1f14	0.011604089
183	0x39473f95	0.00019001805
184	0x3cb24f18	0.02176623
185	0xbb8d9dee	-0.004321805
186	0xbb985ac6	-0.004649493
187	0x3b638a56	0.0034719906
188	0x3caba26d	0.020951474
189	0x3c12ac65	0.008952235
190	0x3cf4782a	0.029842455
191	0xbba06c00	-0.004895687
192	0xbcfdb0e2	-0.030968133
193	0x3cd253a7	0.025674654
194	0xbbd3b6eb	-0.0064610145
195	0x3b771c9b	0.003770626
196	0xbb2ab56d	-0.002604808
197	0x3820bc3c	3.832228e-05
198	0xbafa918a	-0.001911686
199	0xbc1e10a1	-0.009647519
200	0x3c9fb025	0.019493172
201	0xbc472aaa	-0.012156168
202	0x3956f56e	0.0002050006
203	0xbc2e62c0	-0.010643661
204	0xbc5a73cf	-0.013333275
205	0xbc7b10b7	-0.015323809
206	0x3ca22171	0.019791337
207	0xbca17ada	-0.0197119
208	0xbc70e398	-0.0147027
209	0x3bc994f3	0.0061517893
210	0x3c3f26ae	0.011666937
211	0xbc3cd915	-0.011526366
212	0x3d1a50a9	0.03767458
213	0xbb6ae567	-0.00358423
214	0x3cda4814	0.026645698
215	0x3cc81d82	0.024428133
216	0xbc93cc14	-0.018041648
217	0x3c34ba70	0.011030778
218	0xbb696519	-0.0035613237
219	0x3cfb89a5	0.030705282
220	0x3c89f189	0.016838806
221	0x3d39cc00	0.045360565
222	0x3bf9950f	0.007616646
223	0xbbb05632	-0.005381369
224	0x3c21453a	0.009843165
225	0x3c8360cf	0.016037373
226	0x3bf91ae9	0.007602085
227	0xbbcdba87	-0.0062783393
228	0xbb82550d	-0.003977424
229	0x3c38a5a3	0.01126996
230	0x3c5700b6	0.013122728
231	0x3bb595ff	0.0055415626
232	0x3cac25fb	0.021014204
233	0x3c938db9	0.018011915
234	0xbca62d33	-0.020285225
235	0xbd0727b7	-0.03299686
236	0x3c0f3ead	0.00874297
237	0xbca61aca	-0.020276446
238	0xbc735639	-0.0148521
239	0x3c4b08ff	0.012392282
240	0x3c5ebe71	0.013595209
241	0xbb42ead4	-0.002974202
242	0x3b394696	0.0028270832
243	0xbc78f5f3	-0.015195358
244	0xbca662c9	-0.020310776
245	0xbca11592	-0.019663606
246	0xbcf10dae	-0.029425468
247	0x3c2df990	0.010618582
248	0x3c1d51e4	0.009602044
249	0x3c639daa	0.0138925705
250	0x3be34abf	0.0069364007
251	0xbcaab98d	-0.02084043
252	0xbc87ad60	-0.016562164
253	0x3c9d38f2	0.019192193
254	0x3cfcdf00	0.030868053
255	0xbc70a308	-0.014687307

layer1.bias f4 [32]
0	0x3c48ad8d	0.012248409
1	0x3a1a7ffc	0.0005893705
2	0xbc905bb9	-0.017621862
3	0x3a8f6a65	0.0010941742
4	0x3b8951af	0.0041906456
5	0x3c5e13b1	0.0135544995
6	0x3c267276	0.010159126
7	0x3be7f13a	0.007078317
8	0x3bedf583	0.0072619333
9	0xbc4e4d91	-0.012591735
10	0x3cd2cc96	0.02573232
11	0x3cc505f8	0.024050698
12	0x3cc580b0	0.024109215
13	0xbc8c9333	-0.017160034
14	0xbcdd0e90	-0.026984483
15	0x3b16dcad	0.0023019717
16	0xb923432b	-0.00015569913
17	0x3ca9d889	0.020733135
18	0xbcc3aad2	-0.023885164
19	0xbcd884b5	-0.026430467
20	0xbce260b0	-0.027633995
21	0xbcf7fb3d	-0.030271167
22	0x3ca2b42d	0.019861305
23	0x3c81ff29	0.01586874
24	0xbb8d751b	-0.0043169386
25	0xbca34996	-0.01993255
26	0x3d1101a4	0.035401955
27	0xbb352a52	-0.0027643633
28	0x3c99e5f1	0.018786402
29	0x3c0ec821	0.008714707
30	0x3c3b2170	0.011421546
31	0xbad116ba	-0.0015952208

layernorm1.weight f4 [32]
0	0x3f802efb	1.0014337
1	0x3f7e94dd	0.994459
2	0x3f7ec89f	0.99524873
3	0x3f7e7c74	0.9940865
4	0x3f7f6af3	0.99772567
5	0x3f7fbb2e	0.9989499
6	0x3f74a83a	0.95569193
7	0x3f749fec	0.9555652
8	0x3f7d8f8b	0.99047154
9	0x3f7bdd9f	0.9838504
10	0x3f81ac10	1.0130634
11	0x3f7bb93e	0.9832953
12	0x3f810f89	1.0082866
13	0x3f7f8427	0.99811023
14	0x3f7cb1d3	0.9870884
15	0x3f7c9199	0.98659664
16	0x3f7deaf8	0.9918666
17	0x3f6e1951	0.9300738
18	0x3f7e79a5	0.99404365
19	0x3f86c10e	1.0527666
20	0x3f7ccb06	0.9874729
21	0x3f7d9907	0.99061626
22	0x3f7dff71	0.992179
23	0x3f863e65	1.0487791
24	0x3f826126	1.0185897
25	0x3f7be89d	0.98401815
26	0x3f864c9d	1.049213
27	0x3f808475	1.0040423
28	0x3f7d8c33	0.9904205
29	0x3f72d9f3	0.94863814
30	0x3f81dd60	1.0145683
31	0x3f7d443b	0.98932236

layernorm1.bias f4 [32]
0	0x3cb0e1db	0.021592071
1	0x3b3dc9bc	0.0028959354
2	0xbae5a34d	-0.0017519981
3	0xbbea87d6	-0.007157306
4	0xbc495d50	-0.012290314
5	0x3a5d7314	0.0008447629
6	0x3a9aded4	0.0011815676
7	0xbc9319ef	-0.017956702
8	0xbc8ec9af	-0.017430155
9	0xbc2aa283	-0.010414722
10	0x3c9cecf1	0.019155951
11	0xbc8e4150	-0.017365128
12	0x39b201ce	0.0003395215
13	0xbc38d49a	-0.011281157
14	0xbbb74ed9	-0.005594116
15	0xbc1e70fd	-0.009670493
16	0xbce2d1e8	-0.027687982
17	0x3c9293e7	0.017892791
18	0xbc0d22f8	-0.008614294
19	0xbbe6c812	-0.007042893
20	0xbbf64865	-0.0075159543
21	0xbc44cb40	-0.012011349
22	0x3bd86812	0.006604203
23	0x3c441edc	0.011970248
24	0x3bb118ac	0.0054045524
25	0xbc457a45	-0.012053077
26	0x3c812f76	0.015769701
27	0x3be866f1	0.0070923497
28	0xbc8ea649	-0.017413275
29	0xbd5ed5cf	-0.054403123
30	0xb84e814d	-4.9234648e-05
31	0x3c6f941e	0.014622716

blocks.0.fcn_layer.weight f4 [32, 32]
0	0xbe4942f3	-0.19654445
1	0x3d1395d7	0.03603157
2	0x3e03ad5b	0.12859099
3	0x3c6f906c	0.014621835
4	0xbe00f708	-0.12594235
5	0x3e337bef	0.17527746
6	0xbe4742b3	-0.19459037
7	0x3dcbde31	0.09954489
8	0x3e178a1d	0.1479878
9	0xbd48380a	-0.048881568
10	0xbd7b4797	-0.06134757
11	0xbcd605c2	-0.026125792
12	0x3de26331	0.110540755
13	0x3d0ece2d	0.034864593
14	0xbe2b4717	-0.16726337
15	0xbe2104b1	-0.15724446
16	0x3e259a16	0.1617206
17	0xbbceb912	-0.006308683
18	0x3e03c9c1	0.12869932
19	0xbe2bfcbc	-0.1679563
20	0x3e225b03	0.1585503
21	0x3e204785	0.15652283
22	0x3d8fffd0	0.07031214
23	0xbda5198b	-0.080615126
24	0xbd4f9b12	-0.050684996
25	0xbd9289cf	-0.07155191
26	0x3dcbaf73	0.09945574
27	0x3d945f8d	0.07244787
28	0x3c9e2d5b	0.019308737
29	0x3e36c73a	0.17849436
30	0x3d6ba175	0.057527024
31	0xbe261fff	-0.16223143
32	0xbc79c18c	-0.015243899
33	0x3e21dcc0	0.15806866
34	0xbe2786c6	-0.16360006
35	0x3d9554bf	0.07291555
36	0xbe1c0ebb	-0.15239994
37	0xbe0644c5	-0.13112171
38	0x3d99a9f9	0.07503123
39	0x3d641d75	0.055692155
40	0xbdfa3dfd	-0.122188546
41	0x3d55a580	0.052159786
42	0x3dd2966c	0.10282597
43	0xbe11bdf6	-0.1423262
44	0x3e02ff73	0.12792759
45	0x3ca00fce	0.019538786
46	0xbe2198e5	-0.15780981
47	0x3de46793	0.11152568
48	0x3d888146	0.06665282
49	0xbe1b14b5	-0.15144618
50	0x3dcc9bab	0.09990629
51	0x3d197b25	0.037470955
52	0x3d814850	0.06312621
53	0x3db16f51	0.0866381
54	0x3bcaf6c3	0.006193967
55	0x3ce961da	0.028489042
56	0x3e6603e5	0.22462423
57	0xbe02ca51	-0.1277249
58	0x3e621251	0.220773
59	0x3e1a612b	0.15076129
60	0xbd13ba55	-0.036066372
61	0x3e06d890	0.1316855
62	0xbe4d7985	-0.20065887
63	0xbd603109	-0.054734264
64	0xba2d376a	-0.00066076836
65	0xbd8812af	-0.066441886
66	0xbe1ed361	-0.15510322
67	0x3e0bf287	0.13666736
68	0x3e2830b4	0.16424829
69	0xbde1e1a2	-0.11029364
70	0x3d7329d5	0.059366066
71	0xbd5cbe6f	-0.05389255
72	0x3d7e14ba	0.062031485
73	0x3e010276	0.12598595
74	0x3e0704e1	0.13185455
75	0xbcc9b596	-0.02462272
76	0x3e2132b1	0.15741993
77	0x3d416935	0.047219474
78	0xbe0f393f	-0.13986681
79	0x3e03b3a1	0.12861492
80	0xbd9b17dc	-0.0757291
81	0x3e07ef80	0.13274956
82	0xbe4ed912	-0.20199993
83	0xbe63b8d6	-0.22238478
84	0x3e0690c5	0.13141163
85	0x3bb7ca4e	0.0056088334
86	0xbe0c2f31	-0.13689877
87	0x3cf94f6d	0.030433381
88	0xbd780c59	-0.06055865
89	0xbc885340	-0.01664126
90	0x3e673a01	0.2258072
91	0xbdfe2406	-0.12409215
92	0xbd18090f	-0.037118014
93	0x3d4ae536	0.049535
94	0x3d91994b	0.071093164
95	0x3c76c116	0.015060684
96	0xbe48fc2b	-0.19627444
97	0x3d81024c	0.06299266
98	0xbdaaea84	-0.083455116
99	0x3db5c12f	0.088747375
100	0xbd55f6bc	-0.052237257
101	0xbcb655b2	-0.02225766
102	0x3cbbdc69	0.022932248
103	0x3e0ee546	0.13954648
104	0x3dd84700	0.10560417
105	0x3e0e1f7d	0.138792
106	0xbe4f0802	-0.20217898
107	0x3e285ede	0.16442439
108	0x3ca0c33e	0.019624349
109	0x3ce6bccd	0.0281662
110	0xbe252b19	-0.16129722
111	0xbdaef32c	-0.08542475
112	0xbc446274	-0.011986364
113	0xbe34372c	-0.17599171
114	0x3b882ae2	0.0041555027
115	0xbe46f9ad	-0.19431181
116	0xbc5ca35c	-0.013466682
117	0xbe0bb065	-0.13641508
118	0x3d5ede94	0.054411486
119	0x3de745c8	0.112926066
120	0x3df88bd6	0.121360466
121	0x3e029f96	0.1275619
122	0x3e06a990	0.1315062
123	0x3d876cbb	0.066125356
124	0x3e0b9b21	0.13633396
125	0x3e5595d5	0.20857938
126	0xbdeee3b1	-0.116645224
127	0xbe36120d	-0.17780323
128	0xbd3a2d50	-0.04545337
129	0x3dc5bbef	0.09654986
130	0xbcc3da37	-0.023907764
131	0xbe244020	-0.16040087
132	0x3d3579bd	0.04430555
133	0xbd7aa7af	-0.06119507
134	0x3e2c78f3	0.16843013
135	0x3df06604	0.11738208
136	0x3d1433ee	0.036182337
137	0x3dfc3c8d	0.12316237
138	0xbd54f3f9	-0.051990483
139	0x3dedf6c1	0.1161933
140	0x3d331289	0.04371885
141	0x3df1c76a	0.11805613
142	0xbe1dbc83	-0.15403943
143	0x3de25bc8	0.11052662
144	0x3e04f2ce	0.12983248
145	0xbd9f8602	-0.07789232
146	0xbdbcedc8	-0.09225041
147	0x3db90d61	0.09035755
148	0x3bbf11cb	0.0058309785
149	0x3dd37b67	0.103262715
150	0xbe28edc4	-0.1649695
151	0x3cd1337c	0.025537245
152	0xbdb5a9a0	-0.08870244
153	0x3dee552c	0.11637339
154	0xbddc16e0	-0.107465506
155	0x3d9d8b6e	0.0769261
156	0xbde2edcd	-0.11080513
157	0xbd978899	-0.07399101
158	0xbc8b267d	-0.016986126
159	0x3e2d9225	0.16950281
160	0x3df2633d	0.118353345
161	0x3dc8b253	0.09799638
162	0xbd3854a8	-0.04500261
163	0x3dc39137	0.09549182
164	0xbcf231ca	-0.029564757
165	0xbccb9334	-0.024850465
166	0xba8db988	-0.0010812739
167	0xbd44450c	-0.04791741
168	0xbd0d9f6a	-0.034575857
169	0x3d82b812	0.06382765
170	0x3c47bd20	0.012191087
171	0x3d8150fa	0.06314273
172	0xbdae8b20	-0.0852263
173	0xbdb949de	-0.09047292
174	0x3d6f71a0	0.05845797
175	0x3be057be	0.006846397
176	0xbd0efde0	-0.034910083
177	0x3e1193ac	0.14216489
178	0xbd348566	-0.04407253
179	0x3dcfe59c	0.101512164
180	0xbe2c59a7	-0.16831075
181	0xbd71833a	-0.058963038
182	0x3e1c4d86	0.15263948
183	0xbc99a15c	-0.0187537
184	0xbdf07f3e	-0.117430195
185	0x3e13705e	0.14398333
186	0xbe2d3348	-0.16914093
187	0xbe29571a	-0.16537133
188	0xbb6bf8d3	-0.0036006465
189	0x3d5f6934	0.05454369
190	0x3dd4b082	0.10385229
191	0x3df00da2	0.1172135
192	0xbd9812b7	-0.074254446
193	0x3c953c01	0.018217089
194	0xbd4a1f78	-0.049346417
195	0x3d1592f3	0.036517095
196	0x3e252b0b	0.16129701
197	0x3e2baca8	0.16765082
198	0x3e00cc31	0.12577893
199	0x3cc95150	0.024574906
200	0x3e2267ae	0.15859863
201	0xbd17cfc7	-0.037063386
202	0x3df06098	0.11737174
203	0xbdaffa85	-0.08592705
204	0x3db0ba7a	0.086293176
205	0xbb1b3345	-0.0023681682
206	0xb96cc3b5	-0.0002257962
207	0x3e244b14	0.16044265
208	0xbd52fc29	-0.05151001
209	0xbdfee2d3	-0.12445607
210	0x3db0c2a6	0.08630876
211	0xba85ed4b	-0.0010217814
212	0x3dd98dca	0.10622747
213	0xbd3b9957	-0.045800533
214	0xbda77262	-0.08176114
215	0xbe110b78	-0.14164531
216	0xbdee77bd	-0.11643932
217	0x3dbae07a	0.09124847
218	0x3db1d2e7	0.086828046
219	0xbe1c6e70	-0.15276504
220	0xbda076a8	-0.07835132
221	0x3c759445	0.0149889635
222	0x3caf52a7	0.021401716
223	0xbde679fc	-0.112537354
224	0x3d0c44c9	0.034245286
225	0xbd8620fe	-0.065492615
226	0x3df4e477	0.11957639
227	0x3c77f1d1	0.015133337
228	0x3e28c973	0.16483097
229	0x3e16ea74	0.14737874
230	0x3d8b9414	0.06815353
231	0xbe1fbe4b	-0.15599935
232	0xbd212ce8	-0.039349467
233	0x3e282c10	0.16423059
234	0x3da1347e	0.0787134
235	0x3dd2820e	0.10278712
236	0xbe1aad15	-0.15105088
237	0xbdf6a81e	-0.120437846
238	0x3d74655c	0.059666976
239	0x3e196fec	0.14984101
240	0xbd926e5a	-0.07149954
241	0x3c4d5090	0.012531415
242	0x3d8bd744	0.06828168
243	0x3e20eff2	0.15716532
244	0x3cbc9cc9	0.02302398
245	0x3ca46ef3	0.020072436
246	0x3db9fe17	0.09081667
247	0xbdb39367	-0.08768349
248	0xbde2a092	-0.110657826
249	0xbd369d76	-0.04458376
250	0xbe09f022	-0.1347051
251	0xbe3a2cb5	-0.18181117
252	0x3e1a7a33	0.15085678
253	0x3dfd73b5	0.12375585
254	0x3e3b2a3a	0.18277827
255	0x3cab7819	0.02093129

blocks.0.fcn_layer.bias f4 [32]
0	0xbdb0eae1	-0.086385496
1	0xbdebfebd	-0.11523197
2	0x3e281639	0.16414727
3	0xbd6f8ba5	-0.058482785
4	0xbdfc24cd	-0.12311707
5	0xbdd46636	-0.10371058
6	0x38bbcce8	8.9550216e-05
7	0x3daaf34c	0.083471864
8	0x3db972af	0.09055077
9	0x399224e3	0.00027874773
10	0xbda7213a	-0.08160634
11	0xbc2eb04c	-0.01066215
12	0xbd882db1	-0.0664934
13	0xbc108c16	-0.008822462
14	0x3e0bdd86	0.13658723
15	0x3db3b38e	0.08774482
16	0xbc2a2a4a	-0.010386059
17	0x3df16038	0.117859304
18	0x3d4ccff7	0.05000302
19	0xbe011e84	-0.12609297
20	0x3d246065	0.04013099
21	0x3cee9379	0.029123055
22	0x3c8f5e17	0.01750092
23	0xbe07701d	-0.13226362
24	0xbc9f434b	-0.019441267
25	0x3de92e64	0.113858014
26	0x3af8b685	0.0018975293
27	0x3e0030e2	0.12518647
28	0xbe1fe8c9	-0.15616144
29	0xbdf93196	-0.12167661
30	0x3e0221ca	0.12708202
31	0xbe127e2f	-0.14305948

blocks.0.layer_norm.weight f4 [32]
0	0x3f806b97	1.0032834
1	0x3faeba10	1.3650532
2	0x3fa40e98	1.2816954
3	0x3f7e52a2	0.9934484
4	0x3f806aff	1.0032653
5	0x3f8c384d	1.0954682
6	0x3f7f0758	0.9962058
7	0x3f865035	1.0493227
8	0x3fa08bdb	1.254268
9	0x3f9886de	1.1916158
10	0x3f8259d2	1.0183661
11	0x3f997669	1.1989261
12	0x3fb16863	1.3859981
13	0x3f889020	1.0668983
14	0x3f9a2aaa	1.204427
15	0x3f835183	1.025925
16	0x3f7f9699	0.9983917
17	0x3f9ef34b	1.2417997
18	0x3f814683	1.0099643
19	0x3f7f2752	0.99669373
20	0x3f897e0f	1.0741595
21	0x3fa0e188	1.2568827
22	0x3f7ff167	0.99977726
23	0x3f98b82c	1.1931205
24	0x3f819a82	1.0125277
25	0x3f7c76ea	0.9861895
26	0x3f7dda11	0.9916087
27	0x3fa2a6dd	1.2707173
28	0x3f99a5e7	1.2003754
29	0x3f858e3c	1.0434031
30	0x3f829bfa	1.020385
31	0x3f816fff	1.0112303

blocks.0.layer_norm.bias f4 [32]
0	0x3be7f8bd	0.0070792125
1	0x3e8dfaf6	0.2773053
2	0x3e80f203	0.2518464
3	0xbcd75d26	-0.026289534
4	0xbb6dfc23	-0.0036313615
5	0x3d892a73	0.0669755
6	0xba6e3d24	-0.000908809
7	0x3d122039	0.03567526
8	0x3e76e99e	0.24112555
9	0x3e60b3bc	0.21943563
10	0x3c9b3b30	0.018949121
11	0x3e5a6e26	0.21331081
12	0x3e93b87c	0.28851688
13	0x3cfd8428	0.030946806
14	0x3e66d5ed	0.22542544
15	0x3cdfffa9	0.027343588
16	0xbbf8aa80	-0.0075886846
17	0x3e745345	0.2385989
18	0x3ca72db3	0.020407533
19	0xbbd76d6f	-0.006574325
20	0x3d21dfa7	0.039519932
21	0x3e7686ee	0.24074909
22	0x3bb66248	0.0055659153
23	0x3e57ce98	0.21074903
24	0x3cf2be9c	0.029631905
25	0xbcc3c325	-0.023896763
26	0xbbc812ea	-0.0061057704
27	0x3e7ba21a	0.24573556
28	0x3e5d7977	0.21628366
29	0x3d0066a2	0.03134788
30	0x3cdc3e39	0.026885139
31	0x3cadeb68	0.021230415

last_layer.weight f4 [1, 32]
0	0xbd1c24e4	-0.03812112
1	0xbeb05e3a	-0.3444689
2	0xbe94a04e	-0.29028553
3	0x3c04a8a1	0.008096845
4	0xbdf988e3	-0.12184312
5	0x3e4ac375	0.19801123
6	0xbb7d6e5d	-0.0038670518
7	0x3e453b87	0.19260989
8	0xbe9b9d61	-0.30393508
9	0xbe90fc2b	-0.2831739
10	0x3e343747	0.17599212
11	0xbeb08f31	-0.34484246
12	0xbeb3150d	-0.34976998
13	0x3e0ec90c	0.13943881
14	0xbe916a5b	-0.28401455
15	0x3e18edc6	0.14934453
16	0xbc4596d4	-0.012059886
17	0xbe90743c	-0.2821368
18	0x3e1c964d	0.1529171
19	0xbe2d1e33	-0.16906051
20	0x3e755527	0.23958264
21	0xbe9d3245	-0.30702415
22	0x3e0afeb9	0.13573731
23	0xbeae39bf	-0.34028432
24	0x3db933ec	0.090431064
25	0xbd2d3a7b	-0.0422921
26	0x3df14a8c	0.11781797
27	0xbe9a7f55	-0.30175272
28	0xbea62bcb	-0.32455286
29	0x3d802cbb	0.06258532
30	0x3df2a650	0.11848128
31	0x3cebe778	0.028796896
